Notebooks/SBMs/best_model.pth (torch, 14682 bytes, 25 tensors)

att f4 [10]
000000 11 a4 1f 3f e7 5b bf 3f 2e ed 1a 3f e4 7f ae 3f
       0.6235972 1.4949921 0.6051816 1.3632779
000010 fd 32 96 3f 2d 66 90 3f d5 46 09 3f 43 e6 08 3f
       1.173431 1.1281182 0.53623706 0.5347635
000020 52 09 31 3f 02 09 2f 3f
       0.69154847 0.6837312

MLP.weight f4 [3, 200]
000000 f0 91 45 bd 13 1d 51 bd 48 6e 47 bd 14 53 a5 bc
       -0.04823488 -0.051053118 -0.048689157 -0.020181216
000010 a6 80 4b bc 33 22 18 bd 15 82 ad bd 1e b9 78 3c
       -0.012420809 -0.03714199 -0.08472077 0.015180854
000020 11 d9 5f bd 32 be 85 bc c8 93 f3 3c d2 33 51 bd
       -0.05465037 -0.016326044 0.029733554 -0.05107481
000030 1c a4 95 3c 54 13 1e 3c 5a cb 5e bd 00 da a8 bc
       0.01826673 0.009648163 -0.05439315 -0.020611763
000040 86 22 c9 bc 38 2e c7 bb 0b 1f 2b bd 55 98 ea 3c
       -0.024552595 -0.0060785078 -0.04177765 0.02863709
000050 5e 39 3a bc bd 67 64 bd 88 04 12 bd 35 f9 3e bd
       -0.0113662165 -0.055762995 -0.035648853 -0.04662438
000060 b6 25 aa 3c 08 6d 01 bd 45 68 0a bd 14 58 ac 3b
       0.020769935 -0.03159812 -0.033790845 0.005259523
000070 ab 95 c0 bc 53 dc eb bc f5 23 ac bd 19 05 e8 3a
       -0.023508867 -0.028791582 -0.08405296 0.0017701715
000080 f7 a1 b6 3c e0 59 0a bd 29 2b cb bc 4d 13 44 bb
       0.022294028 -0.033777118 -0.024800854 -0.002991873
000090 09 4a 92 bc 3a 63 0a 3d 04 b2 31 bd 5a 79 68 bd
       -0.017857568 0.033786036 -0.04338266 -0.056756355
0000a0 95 b1 8a bd 77 ab 93 bd 14 6e 56 bd 3b 15 80 3b
       -0.06772152 -0.07210439 -0.052351072 0.003908781
0000b0 28 91 3b bd 68 17 e2 bb 9e 42 be bd ad 59 8e bc
       -0.04579273 -0.006899763 -0.0929005 -0.017376745
0000c0 be 85 c2 bd 9a 37 0b 3d a4 d1 cb bc 5b c0 2c bd
       -0.094981655 0.033988573 -0.024880238 -0.042175632
0000d0 48 91 7e bd d7 f0 fa 3c 08 b8 19 3d f0 5a d3 bc
       -0.06215027 0.03063242 0.03752902 -0.025800198
0000e0 9d 41 c4 bd bb 72 53 bd 94 4e 15 bd 72 ad 85 bd
       -0.09582827 -0.051623087 -0.03645189 -0.06527223
0000f0 48 1e 06 bb aa d3 00 bd c2 ac 82 bd 8b 5a 80 bd
       -0.0020464826 -0.03145186 -0.06380607 -0.0626727
000100 98 56 6f bc b3 7b 59 bd f5 bd 47 bd 18 8d 91 bc
       -0.014608048 -0.053096484 -0.04876514 -0.017767474
000110 35 ee c6 bd ad 3b 33 3c 50 3e 49 3c a1 f4 31 bc
       -0.09713403 0.010939521 0.012282923 -0.010861547
000120 c5 dd 36 3d 81 3d 5b bc 74 fd 61 bb 7d fd 79 bc
       0.04464509 -0.013381363 -0.0034483345 -0.01525819
000130 46 e8 51 bd a3 8f 04 bd df bb 4a bd e0 54 1a bd
       -0.051246904 -0.032363545 -0.049495574 -0.0376786
000140 20 a2 35 bd 78 31 6b 3b e8 11 cc bc 89 6b fb bc
       -0.044344068 0.003588764 -0.024910882 -0.030690925
000150 39 16 c8 bd 4b c2 82 3d f3 fc 22 bd e2 26 c1 bd
       -0.09769864 0.06384715 -0.039792012 -0.094312444
000160 cc 13 14 bd 39 5a 27 bd 1d 5e 2f bc f2 e9 47 bd
       -0.036151692 -0.040857527 -0.010703591 -0.048807092
000170 ba c6 0c bd 55 f9 00 bd 8b 98 86 bc 8f 6e 3a bd
       -0.034369208 -0.03148778 -0.01643016 -0.045515593
000180 35 44 69 bd a2 e5 10 bd ec 27 8c 3b 5f 64 ff 3c
       -0.056949813 -0.035375245 0.00427722 0.03117579
000190 05 ca 46 3c 70 43 af bc e3 46 06 bc 84 0c 8d 3c
       0.012133126 -0.021394461 -0.008195612 0.017217882
0001a0 1a a6 ab bd 01 9c 43 bc 29 fd dc bc ab d2 f3 bc
       -0.08381291 -0.01193905 -0.026976185 -0.02976354
0001b0 c4 3f 3d bd 5b b3 bb bd d4 b1 ae bd 6c 00 4d bd
       -0.04620339 -0.09165069 -0.08530012 -0.05004923
0001c0 5d d6 ed bb 35 c0 59 bd 18 e3 56 bd 23 ee 7c 3c
       -0.00725822 -0.05316182 -0.052462667 0.015437636
0001d0 f6 a5 33 bc 78 83 e1 3c 3d 8b 08 3c 9b 43 a4 3c
       -0.010964861 0.02752851 0.008333978 0.020051768
0001e0 6e cc bf ba 71 29 1f 3a 85 e8 d0 3c 60 87 65 37
       -0.0014633068 0.0006071544 0.025501499 1.3680983e-05
0001f0 83 1e 9a bd 37 98 46 3d 5b e4 6a bc 5f d4 9b bd
       -0.07525351 0.048485007 -0.014336671 -0.07608866
000200 07 98 50 bd f5 ad af bb 5c 22 3c bd 68 08 e4 3a
       -0.050926235 -0.0053613135 -0.045931205 0.0017397525
000210 da f7 e1 bd c5 9e 9e bd 3f 4e 5f bc de 64 5d bd
       -0.11033602 -0.07745127 -0.013629495 -0.054051273
000220 5e 05 3f bd ab ec 89 bc 24 c2 20 3c 9a 43 07 3c
       -0.046635978 -0.016836485 0.009811912 0.008255864
000230 9d b3 c8 bc 50 0b d2 bc 02 52 22 bd f1 18 4f bd
       -0.024499709 -0.02564016 -0.03962899 -0.050560895
000240 ba 1a ac bc 1e ce 88 bd e0 dd 60 bc f1 9b af bb
       -0.021008838 -0.06679939 -0.013724774 -0.005359166
000250 77 27 2f bd 31 08 6e bd ac ce af 3d c5 c4 6e 3e
       -0.042762246 -0.05811328 0.085843414 0.23317249
000260 23 e1 62 3e 87 1f 6a 3e 11 66 e9 3d df c4 55 3e
       0.22156195 0.22863589 0.11396421 0.20875882
000270 7d 97 43 3e 6f 9b 49 3e 52 5d 73 3e dd c5 60 3e
       0.19100757 0.196882 0.23766068 0.21950479
000280 da 93 53 3e 53 7b 4e 3e fd ca 68 3e c2 5c 3a 3e
       0.2066187 0.20164232 0.22733684 0.18199447
000290 09 d3 c8 3d bf 62 1e 3e e6 90 1e 3e aa 14 a3 3d
       0.09805877 0.15467356 0.15484962 0.07962926
0002a0 15 e8 4d 3e af 4f 76 3e 7a 34 44 3e c2 1a 1e 3e
       0.20108064 0.24053834 0.19160643 0.15439895
0002b0 bf 3a 8c 3e b5 b0 5a 3e b2 1f 64 3e b1 f2 84 3e
       0.2738857 0.21356471 0.22277716 0.2596641
0002c0 d5 05 1b 3e 73 c7 0f 3e 4e a9 fb 3d 68 12 45 3e
       0.15138943 0.14040928 0.12288152 0.19245303
0002d0 73 b5 9a 3d 9a d7 87 3e 50 30 48 3e d5 5d 6b 3e
       0.0755414 0.26531678 0.1954968 0.22985013
0002e0 1e 8e 23 3e c1 c5 3c 3e de 18 33 3e 9d a2 1d 3e
       0.15972182 0.18434812 0.17489955 0.15394063
0002f0 88 6a 86 3e c8 2b 74 3d 42 e7 4e 3e 33 c7 04 3e
       0.26253152 0.059612066 0.20205405 0.12966613
000300 5c c2 31 3e 54 bf 2d 3e 82 5a 1e 3e d0 a1 55 3e
       0.17359298 0.16967517 0.15464213 0.20862508
000310 a3 8f 2d 3e 3a fa 27 3e e3 4b 1c 3e 28 ef 84 3e
       0.16949324 0.16404048 0.15263323 0.25963712
000320 bc db be 3b 65 b0 5d 3d 98 16 03 3c ea bb 4e 3d
       0.005824534 0.0541233 0.008000992 0.050472178
000330 a6 82 8b 3c 66 12 58 3d f3 c8 01 3d d6 d3 4c 3d
       0.017030071 0.05275192 0.03168578 0.05000671
000340 b9 96 0a bc 16 21 db 3c b6 8a ba 3c 1c b3 c0 3c
       -0.008458787 0.026749175 0.02277122 0.023522906
000350 7f eb d5 3c 8f ce 6a 3d d4 57 05 bd 98 00 af bc
       0.02611327 0.057325896 -0.032554463 -0.021362588
000360 bc 90 07 bc 9b 54 e2 3c f4 e3 20 3c f4 42 da 38
       -0.008274253 0.027628234 0.009819973 0.00010407521
000370 cd 04 52 3b 66 75 94 3c 51 30 cc 3c 3c d0 2a 3d
       0.0032046319 0.018122386 0.024925383 0.041702494
000380 6c 1b 11 bb 77 29 97 3d 30 9c 37 3d 39 b2 15 3d
       -0.002214159 0.07380956 0.044826686 0.03654692
000390 e6 24 da bb 16 ba 15 bd 5b bc 8c 3c fa 2f c6 bc
       -0.0066572307 -0.03655442 0.017179659 -0.024192799
0003a0 7c f5 37 bb 77 33 0f 3d 31 88 95 3c ce 01 4e bc
       -0.0028069904 0.03496119 0.018253418 -0.012573672
0003b0 de 2b 83 3d cc 46 98 bd bd 96 19 3d 32 dc 84 3c
       0.064048514 -0.074353784 0.03749727 0.016218279
0003c0 36 32 aa 3c f8 f0 39 3d 59 dc 9f 3c 1f 76 82 bc
       0.020775896 0.04539582 0.01951425 -0.015925465
0003d0 1f e7 b7 3c b5 47 14 3d 2e e6 db bb ef 78 f5 bc
       0.022449074 0.036201198 -0.006710789 -0.029964892
0003e0 32 5b c6 3c 03 98 29 bd 29 85 7e 3d f2 0a 67 3c
       0.024213407 -0.041404735 0.06213871 0.014101731
0003f0 54 54 8e 3d e5 a2 51 3d 3d c1 e4 bc bc da fa 3c
       0.06949678 0.05118074 -0.027924174 0.030621879

MLP.bias f4 [3]
000000 44 7f b9 3d 92 86 c5 3d bb 97 5a 3d
       0.09057477 0.09644808 0.053367358

convs.0.bias f4 [16]
000000 7e 81 e3 3e 64 a7 af 3e 94 e9 c3 3e 16 13 a8 3e
       0.44434732 0.34307396 0.38264143 0.3282706
000010 20 a0 8f 3e f0 8a 50 3e 00 26 34 bd 55 ee d0 3e
       0.28051853 0.203655 -0.043981552 0.40806833
000020 76 ad ba 3e e5 05 b0 3e 7c 84 b8 3e a1 17 c1 3e
       0.36460465 0.34379497 0.36038578 0.3771334
000030 21 2d b2 3e c5 f8 ce 3e 70 5e c0 3e 04 34 c5 3e
       0.34800056 0.4042417 0.3757205 0.38516247

convs.0.lin.weight f4 [16, 1]
000000 6b 2b f0 3e fa f0 fa 3e 76 d7 2d bf 70 a9 48 bf
       0.46908125 0.49011976 -0.6790689 -0.7838354
000010 a9 bf 1d bf 20 1c 34 bf 9e c8 c8 3c 82 3b 06 bf
       -0.61620575 -0.70355415 0.024509724 -0.5243455
000020 80 27 c5 be a3 ec f2 be 9c fd d6 be 70 3d c7 3e
       -0.385067 -0.47446164 -0.41990364 0.3891406
000030 07 91 32 3f c7 9b f2 be d3 d7 25 3f 31 d7 31 3f
       0.69752544 -0.47384474 0.64782447 0.6946898

convs.1.bias f4 [16]
000000 5e 9e 81 bd f8 8a fe bb 9c f0 e1 3e 54 c8 e3 3e
       -0.06329034 -0.007768031 0.44128883 0.44488776
000010 da da de 3e 2c 54 cd 3e 11 7f ce 3e 72 a9 e2 3e
       0.43526345 0.4010328 0.4033132 0.44269902
000020 59 5f e1 3e 70 56 c2 3e b5 ec eb 3e 8c f8 c1 3e
       0.44018057 0.37956572 0.4607903 0.3788494
000030 8c 06 d7 3e ab 6d f0 3e 89 0b c8 3e 46 7a f3 3e
       0.41997182 0.4695867 0.390713 0.47554225

convs.1.lin.weight f4 [16, 1]
000000 05 d1 fa bb 71 64 3a 3b 59 6a f9 be be 95 42 bf
       -0.0076543116 0.0028441215 -0.4871395 -0.7600974
000010 50 1e 01 bf ce 5f 81 bf e7 39 db 3e ce f0 50 bf
       -0.5043688 -1.0107362 0.42817613 -0.8161744
000020 00 1c 1d bf e2 e2 d3 be a4 ac 4d 3f fb dc 63 bf
       -0.6137085 -0.41384035 0.80341554 -0.89009064
000030 82 ce 08 bf 27 54 f4 3e 99 f7 c1 3e e7 f0 32 3f
       -0.53440106 0.47720453 0.37884215 0.6989884

convs.2.bias f4 [16]
000000 32 f5 fa ba 81 85 d3 3e 5b 88 bd 3e 12 9a ad 3e
       -0.001914656 0.41312793 0.37018093 0.3390661
000010 90 df f2 3e 99 5f d2 3e 6e cb 8d bc d6 3c c8 3e
       0.4743619 0.4108856 -0.017308917 0.39108914
000020 c1 7d ef bc 74 6c b7 3e 17 bd c2 3e e8 c3 d2 3e
       -0.029234769 0.3582493 0.3803489 0.4116509
000030 1f 93 f3 3e 02 d0 d3 3e 00 46 d2 3e e0 80 c3 3e
       0.47573182 0.41369635 0.4106903 0.3818426

convs.2.lin.weight f4 [16, 1]
000000 b4 e1 05 bd 5e ee a8 be fd 7e d9 3e e7 44 41 bf
       -0.03268595 -0.3299436 0.42479697 -0.7549576
000010 c4 47 ef 3e c9 ab d1 be 09 3c 88 3b 72 a5 65 bf
       0.4673444 -0.40951374 0.0041575474 -0.89705575
000020 8a 6c 61 3b 8f e5 1f bf 7a 00 dc 3e ee 8b 4c bf
       0.003439697 -0.62459654 0.42969114 -0.79901016
000030 ae 9d 1b 3f 1b f6 03 bf 40 f4 0f bf 4b bd 56 bd
       0.60787475 -0.515474 -0.5623207 -0.052426618

convs.3.bias f4 [16]
000000 63 bb c3 3e 21 71 e4 3e 44 20 f2 3e bd 89 dd 3e
       0.38228902 0.4461756 0.47290242 0.43269148
000010 6a 55 e0 3e 48 5c e3 3e f9 b9 dd 3e ec 01 a6 3e
       0.43815166 0.44406343 0.43305948 0.3242334
000020 88 2c ba 3e 9b 8a fb 3e 6c 37 e1 3e 1e 1f 9b 3e
       0.363621 0.49129185 0.43987596 0.30297178
000030 57 9a de 3e e6 9e e0 3e 34 e8 cd 3e 3f 33 e3 3e
       0.43477127 0.4387123 0.4021622 0.44375035

convs.3.lin.weight f4 [16, 1]
000000 06 bd 3c bf 7b aa 5e bf 54 3c 1a 3f 39 8a 05 bf
       -0.73725927 -0.8697888 0.60248303 -0.52164036
000010 c1 51 28 bf e7 0f d0 be 27 ff ce be e7 83 dd 3e
       -0.65749747 -0.40637133 -0.4042904 0.43264696
000020 b0 6f f4 3e b4 ad 2c 3f 33 0b 07 bf 57 d7 f2 be
       0.4774146 0.6745255 -0.52751464 -0.47429916
000030 6c b2 2b bf 03 c5 2a bf f4 41 da be 3f 0d 2c bf
       -0.67069125 -0.66706866 -0.42628443 -0.6720771

convs.4.bias f4 [16]
000000 8d 74 72 bc bd 74 e2 3e 36 b7 d6 3e 28 e0 d1 3e
       -0.014798296 0.4422969 0.41936654 0.4099133
000010 c5 1e b7 3e d4 de e2 3e 2e 42 ce 3e 9d cb c4 3e
       0.35765663 0.4431063 0.40284866 0.38436595
000020 8f 06 df 3e 05 f3 d0 3e 78 3f bc 3e 58 14 d5 3e
       0.4355969 0.4081041 0.36767173 0.41617084
000030 91 ed 98 3e ad 85 bb 3e f2 37 de 3e 2d da e0 3e
       0.2986875 0.36625424 0.43402058 0.43916455

convs.4.lin.weight f4 [16, 1]
000000 09 00 9f 3b a3 e7 2e bf 45 1b d1 3e c7 d6 43 bf
       0.004852299 -0.683222 0.40841118 -0.764996
000010 83 5c 48 bf fa 4d 5f be 05 d3 3f bf 55 01 ac 3e
       -0.7826616 -0.2180709 -0.74931365 0.33594766
000020 2f 97 19 bf b2 3a 53 bf 71 4d 15 bf 01 af 2c bf
       -0.5999631 -0.82511437 -0.5832129 -0.67454535
000030 1a 58 2f bf c4 76 ce 3e 7b 00 d5 be 8b 65 12 bf
       -0.6849381 0.40324986 -0.4160193 -0.5718619

convs.5.bias f4 [16]
000000 63 2b e0 3e cf 88 02 bd 75 32 92 3e 8d f6 dc 3e
       0.437831 -0.031868752 0.2855412 0.43156853
000010 56 3c db 3e 2e d7 99 3e c0 99 df 3e c2 df e5 3e
       0.4281947 0.30046982 0.4367199 0.44897276
000020 50 c6 68 bb 4a 4c de 3e ae f0 dc 3e e8 f4 de 3e
       -0.0035518594 0.4341758 0.43152374 0.43546224
000030 0c d0 df 3e e6 c8 bb 3e 0a 9c a1 3e eb af de 3e
       0.43713415 0.3667671 0.3156436 0.4349359

convs.5.lin.weight f4 [16, 1]
000000 ee 7f d6 3e 60 7b e9 3a 37 c2 9f 3e 83 a3 89 3e
       0.41894478 0.0017813258 0.31202862 0.26882562
000010 a8 e3 21 bf 63 60 2f bf e8 1c 4c bf dd e2 fc 3e
       -0.63238 -0.6850645 -0.7973161 0.49391833
000020 0d ae 26 bb 85 2d 5e be 75 9c 6f bf 88 a9 d5 3d
       -0.0025433332 -0.21697052 -0.9359811 0.10432726
000030 05 b0 61 bf 6e 9d 22 bf 0f 53 28 3e 3f 38 61 bf
       -0.8815921 -0.6352147 0.16437934 -0.8797645

convs.6.bias f4 [16]
000000 e7 19 d6 3e 13 b6 9e 3e 67 02 d5 3e 88 51 d0 3e
       0.41816637 0.30998287 0.41603395 0.40687203
000010 2a 7b d2 3e b4 ae 87 3e 34 eb cc bc d9 dd c4 3e
       0.41109592 0.26500475 -0.025014497 0.38450506
000020 3f cc cf 3e 62 2d c7 3e 78 ee bb 3e c8 85 2d 3a
       0.40585515 0.38901812 0.36705375 0.0006619361
000030 6b bb d1 3e 4a d3 de 3e 7a f4 3e 3a ae a9 d1 3e
       0.409633 0.43520576 0.00072843547 0.40949768

convs.6.lin.weight f4 [16, 1]
000000 56 63 57 bf 97 e0 9b 3e 49 1e 28 bf cc 0c ce 3e
       -0.8413595 0.30444786 -0.6567121 0.40244138
000010 36 c4 54 bf e1 08 11 bf 3e 5d 21 3b 9f f9 ee 3e
       -0.83111894 -0.56654173 0.0024622227 0.4667482
000020 0b 07 d8 be bf 18 d8 be e5 da e2 be 30 9f 94 3a
       -0.42192873 -0.4220638 -0.44307628 0.0011338945
000030 8f 61 0b bf 07 c9 e1 3e 3d 38 2f bb a1 9c 5d 3e
       -0.5444574 0.44098684 -0.0026736401 0.2164178

convs.7.bias f4 [16]
000000 e6 4d d4 3e 76 a4 d1 3e 50 95 b2 3e 72 5f 91 3e
       0.41465682 0.40945786 0.3487954 0.28393131
000010 30 79 d3 3e 4c 16 c5 3e 41 10 d5 3e 81 3b ae 3e
       0.41303396 0.38493574 0.41613963 0.34029773
000020 3c ed b9 3e 42 dc b3 3e fc aa c1 3e 46 f9 b9 3e
       0.36313808 0.3512898 0.37825763 0.36322993
000030 7c 92 69 bb e0 8d a3 3e 7c d0 96 3c ad da e5 3e
       -0.003564029 0.3194418 0.01840996 0.448934

convs.7.lin.weight f4 [16, 1]
000000 65 fb cb be c1 92 ec be 53 29 10 bf 36 73 17 bf
       -0.39840236 -0.46205714 -0.56313056 -0.5916017
000010 bf 94 ec be 86 21 31 bf 3b ba 2b bf c8 dc 2b bf
       -0.46207234 -0.6919178 -0.6708104 -0.6713376
000020 2b 41 b6 3e c9 97 af 3e e3 de 69 3e c5 e3 eb be
       0.35596594 0.3429549 0.22838931 -0.46072212
000030 c0 13 05 3c 51 db 96 3e 3e 8f 13 3d c1 cb 54 3e
       0.008122385 0.294642 0.03602528 0.20780851

convs.8.bias f4 [16]
000000 f8 30 d5 3e 1c 01 ac 3e f0 ca d4 3e 12 44 b9 3e
       0.41638923 0.33594596 0.4156108 0.36184746
000010 ef 8c d1 3e e1 8f ba 3e 66 9b c6 3e b3 64 e4 3e
       0.40927836 0.36437896 0.38790435 0.44608077
000020 0a e6 be 3e 53 55 d4 3e c4 0c cb 3e e7 c9 84 bd
       0.3728488 0.41471347 0.39658177 -0.06483822
000030 df 75 cf 3e 5d a1 d0 3e fb 2d d3 3e f2 61 d9 3e
       0.40519616 0.4074811 0.41246018 0.4245754

convs.8.lin.weight f4 [16, 1]
000000 09 67 da 3d 87 af 0d bf a4 07 0a bf b1 e1 a5 3e
       0.10664184 -0.5534596 -0.5391791 0.3239875
000010 9e ed 24 3b f1 eb 51 bf 03 a7 d7 3e 22 ff 96 3e
       0.0025166045 -0.82000643 0.42119607 0.29491526
000020 cf db a7 3e 95 4c 45 be 6f ea 03 3e 5a dd cf bd
       0.32784888 -0.19267495 0.12882398 -0.10149641
000030 cb 1b 10 bf f3 6b 18 3e d2 14 e8 bd b4 e0 e5 3e
       -0.5629241 0.1488493 -0.11332096 0.44897997

convs.9.bias f4 [16]
000000 ed 8e 7d bb 9a ec d2 3e d3 ed cd 3e 89 07 d8 3e
       -0.0038689927 0.41196138 0.40220508 0.4219325
000010 74 b4 c7 3e 65 42 d3 3e 80 27 a8 3e a6 fe d5 3e
       0.39004862 0.41261593 0.32842636 0.41795844
000020 06 f0 cf 3e cb 58 c9 3e e3 e1 dc 3e b1 11 dd 3e
       0.4061281 0.39325556 0.43141088 0.4317756
000030 7b e0 63 3a c1 69 d1 3e 15 a2 d5 3e b1 41 d4 3e
       0.0008692813 0.40900996 0.4172522 0.4145637

convs.9.lin.weight f4 [16, 1]
000000 b2 28 6d bb 8e fe c1 be d7 2a c1 3e 03 d7 8c 3d
       -0.0036187586 -0.37889522 0.37727997 0.06876948
000010 ab 79 08 bf 47 d6 4b bf ae 14 b0 3e 43 df bf be
       -0.5331065 -0.79623836 0.34390777 -0.37475023
000020 28 ca d0 3c c1 c3 0d bf 53 dc 9e 3e 09 ca 98 3e
       0.02548702 -0.5537682 0.3102747 0.2984164
000030 78 44 0b bb c2 74 19 be 34 ca 30 be cb b6 d7 3c
       -0.0021250527 -0.14985946 -0.17264634 0.02633228

classify1.weight f4 [6, 160]
000000 8e e7 e5 3e 2f fa d5 3e cf ae 0e 3e 1b e8 13 3e
       0.44903225 0.41792437 0.13933872 0.1444401
000010 94 3c 88 3d 81 2c 2e bd 98 5f c4 ba 8d 97 b6 3e
       0.06652179 -0.04252291 -0.0014982102 0.356625
000020 1f 37 9c 3e b1 6e 02 3e de 29 6f 3e 12 b0 e8 3e
       0.30510804 0.12737538 0.23355815 0.4544683
000030 4a c8 c9 3e 49 fc ad 3e 38 a2 d2 3e ec f1 e5 3e
       0.3941062 0.3398154 0.41139388 0.44911134
000040 32 23 d1 3c 54 89 39 ba 15 2a b7 3e d8 c9 8f 3e
       0.025529478 -0.00070776534 0.35774294 0.28083682
000050 8d ca 8b 3e 5c 8c e4 3d 0c 8e 00 3f ea 25 ba 3e
       0.2730297 0.11159584 0.50216746 0.3635705
000060 04 73 90 3e b4 ce a4 3e e6 d0 f9 3e 48 f2 62 3d
       0.2821275 0.32188952 0.4879219 0.05540684
000070 a7 be a1 3e 42 31 08 3f 89 76 00 3f 01 63 07 3f
       0.3159077 0.5320016 0.5018087 0.5288544
000080 07 d0 75 bc c7 b9 e3 3e a0 b3 eb 3e 46 7d 3c 3e
       -0.015003211 0.44477674 0.4603548 0.18407163
000090 be 1f e1 3e 3f 8a d5 3e 96 2a 82 bb 6c 93 60 3e
       0.4396953 0.41707036 -0.003972362 0.21931237
0000a0 c0 0e fa b9 34 85 76 3e e5 e3 d5 3e e0 35 9e 3e
       -0.00047694705 0.2407425 0.41775432 0.30900478
0000b0 b8 05 08 3f ce 11 a2 3e 92 1f 9e 3e 50 d1 b1 3e
       0.53133726 0.3165421 0.3088346 0.34730005
0000c0 e5 10 80 3e d0 05 88 3e fc cb 04 3f 8e fe bc 3e
       0.2501289 0.26566935 0.51873755 0.3691296
0000d0 7e 3a ac 3e 92 26 da 3e 08 c5 da 3e 80 bf da 3e
       0.33638376 0.42607552 0.42728448 0.42724228
0000e0 a4 ed e4 3e 7d fa 0d 3f 9d cf d8 3e b8 58 aa 3c
       0.44712555 0.5546034 0.42345896 0.020794258
0000f0 26 89 c1 3e 84 f8 a4 3e 84 c7 ab 3e ef 08 ba 3e
       0.37799948 0.32220852 0.33550656 0.3633494
000100 76 85 a3 bb 67 bf b2 3e 40 02 f9 3e 2d e8 87 3e
       -0.004990275 0.34911653 0.4863453 0.26544324
000110 d1 f6 20 3e 68 ce e5 3e f9 bf 41 3e 78 48 fd 3e
       0.15719153 0.44884038 0.18920888 0.49469352
000120 ad af c0 3e 7c bd 85 3e 52 2c 8c 3e e1 e4 96 3e
       0.3763403 0.26121128 0.27377564 0.29471496
000130 fd 33 d0 3d e9 00 f2 3e 5a e7 dd 3e 36 51 c8 3e
       0.10166166 0.4726632 0.4334057 0.3912446
000140 7b f8 0a 3f b8 4e 57 bb 7a 21 c4 3e cc 47 f5 3e
       0.542854 -0.0032853317 0.3830679 0.4790634
000150 2f 42 b0 3e 83 f7 1c 3e 75 38 a8 3e e1 f5 fc 3e
       0.34425494 0.15328793 0.32855573 0.4940634
000160 be 9a 84 b9 4f 68 f7 3e 25 d7 a8 3e b9 e7 01 3f
       -0.00025292294 0.4832177 0.32976642 0.50744206
000170 58 bb 83 3e fb 89 82 3e e6 88 8e 3e 4a d9 b8 3e
       0.2572887 0.25495896 0.2783882 0.36103278
000180 10 22 c2 3e 54 af dd 3e 38 b2 a8 3e 26 24 05 3f
       0.37916613 0.43297827 0.3294847 0.52008283
000190 5f b9 8d 3e 82 13 46 3e 8a 58 82 bb 6d 50 ef 3e
       0.2768049 0.19343379 -0.00397784 0.46741048
0001a0 c2 7f df 3e b8 cd a4 3e 31 ff ad 3e ea 19 5a 3b
       0.4365216 0.321882 0.33983758 0.0033279606
0001b0 81 0a b1 3e 26 2a 09 3f 2c 28 cd ba ea f7 ea 3e
       0.34578326 0.5357994 -0.0015652231 0.45892268
0001c0 23 d8 c5 3e 5d f3 cf 3e 2e 1a 8b 3e 32 d0 18 3e
       0.38641462 0.4061536 0.2716841 0.1492317
0001d0 bd 12 ac 3e 0d 73 96 3e e6 43 d1 3e 14 87 86 3e
       0.33608046 0.29384652 0.40872115 0.2627493
0001e0 c5 a7 df 3e 99 0a c7 3e 89 1b df 3e 89 65 a6 3e
       0.43682685 0.38875273 0.43575695 0.3249934
0001f0 dc be 2c bc d7 4b d5 3e 94 75 f1 3c 9a af ff 3e
       -0.010543551 0.41659424 0.029475011 0.4993866
000200 9e 2f e2 3e 77 93 88 3e 27 f6 bf 3e 3e a4 f8 3e
       0.44176954 0.26675007 0.37492487 0.48562807
000210 48 59 c6 3e 68 f0 81 3e 28 72 04 3f 76 0f 0c 3f
       0.3873999 0.25378728 0.5173669 0.5471109
000220 48 e0 f8 3e 32 52 ea 3e f2 9a e6 3e 7a 8a 1a 3d
       0.48608613 0.45765835 0.4504009 0.037729718
000230 69 ac b5 3e b6 4d d9 3e d1 86 eb 3e b2 23 09 3f
       0.354831 0.424421 0.46001294 0.5357009
000240 44 5c db 3b f9 57 dc 3e 80 00 06 3f 06 ea f1 3e
       0.0066943485 0.43035868 0.5234451 0.47248858
000250 ac 53 a7 3e 86 2c d3 3e 8d 57 f3 3e 5d 67 ba 3e
       0.32681024 0.41244906 0.47527733 0.36406985
000260 37 46 c7 3e fc d5 cf 3e ec 46 ef 3e 9c 94 f6 3e
       0.38920757 0.40592945 0.46733797 0.48160255
000270 d3 c9 4a bb 47 b9 bf 3e 64 ea db 3e 19 bb eb 3e
       -0.003094305 0.37446043 0.42952263 0.46041182
000280 5b df cb be 4b 26 ca be 13 59 c1 3e 60 dc be 3e
       -0.39818844 -0.3948234 0.3776327 0.37277508
000290 49 19 be 3e a7 e6 d4 3e 08 5b 88 bb 56 31 f2 3e
       0.37128666 0.41582224 -0.0041612424 0.47303265
0002a0 82 bd f6 3e a9 62 e2 3e 0a 11 e4 3e d2 50 f1 be
       0.48191458 0.44215897 0.4454425 -0.47131974
0002b0 f8 09 ee be c6 e6 07 3f a1 08 dc be 0f ea d4 be
       -0.4649198 0.5308651 -0.42975333 -0.41584823
0002c0 61 9a 54 bb 9e 2e a1 3a 9a 15 d2 3e 8e 82 e3 3e
       -0.003244065 0.0012297218 0.41032106 0.44435543
0002d0 d5 63 eb 3e 64 92 08 3f eb 10 8d be 46 87 d1 3e
       0.45974603 0.53348374 -0.2755197 0.40923518
0002e0 3f 85 ff 3e 0e 00 d5 3e a9 79 e9 be 8b ee 04 3f
       0.49906346 0.41601604 -0.45600632 0.5192649
0002f0 7a dd 00 3f 82 8c 04 bf a1 10 e7 be c8 5f de be
       0.50337946 -0.517769 -0.45129874 -0.4343245
000300 bf 75 dd 3c d9 f8 c9 3e 3d e6 e8 be ba 2c f1 3e
       0.027033685 0.39447668 -0.45488158 0.47104436
000310 d1 5c 04 bf a4 c9 c5 3e 3a 38 44 bb 0f b2 e4 3e
       -0.51704127 0.38630402 -0.002994074 0.44667098
000320 38 2e 47 3a 2b d1 af 3e 03 0a d2 be 41 87 a4 3e
       0.00075981347 0.3433927 -0.41023263 0.3213444
000330 17 04 e5 be e4 4e 00 3f bb 11 e8 3e 25 a3 85 3e
       -0.44729683 0.5012038 0.45326027 0.26101032
000340 92 fe df 3e ae d4 03 3f 64 45 c9 be 4a c1 c8 3e
       0.4374891 0.514964 -0.39310753 0.39209968
000350 ed b8 e8 3e 2e 42 e4 3e 28 d8 fb 3e d8 4c c2 be
       0.45453587 0.4458174 0.49188352 -0.37949252
000360 d8 96 da be 97 f9 d6 be 73 17 f7 3e 56 20 e0 3e
       -0.4269321 -0.41987297 0.48260078 0.4377467
000370 3c 88 b9 3e 07 5e e5 3e 55 44 d5 3e 56 14 db 3e
       0.3623675 0.447983 0.41653696 0.42788953
000380 4e e8 d8 3a 23 7e fa 3e 75 ba c5 be b2 90 d7 3e
       0.0016548724 0.4892436 -0.38618818 0.4210258
000390 0f d9 d1 3e 00 cb b4 3e 4c 47 08 3f 64 38 b8 be
       0.40985915 0.35311127 0.5323379 -0.35980523
0003a0 53 1a ce 3e 41 29 f9 3e 24 78 03 3f 0e 4e e2 3e
       0.4025446 0.48664287 0.51355195 0.44200176
0003b0 aa 94 d4 3e e2 07 ba be ab 70 e2 3e 1b 64 ae 3e
       0.41519672 -0.3633414 0.44226584 0.3406075
0003c0 1c 94 b1 be 72 14 1d bb d7 64 76 be b0 a2 84 be
       -0.3468331 -0.0023968485 -0.24061905 -0.2590537
0003d0 f2 eb bc 3e 52 a5 c0 3e 0d 51 f3 3e 56 2c c4 be
       0.36898762 0.3762613 0.47522774 -0.38315076
0003e0 d8 bc 1b 3a a2 73 8e 3e 7c 21 f7 3e cc 74 41 be
       0.00059409207 0.27822596 0.48267734 -0.1889221
0003f0 00 77 d7 3e ec 77 d3 3e 93 54 bf 3c 1a d3 ec 3e
       0.42082977 0.4130243 0.023355758 0.46254808

classify1.bias f4 [6]
000000 e4 12 c0 3e bf ac 9e 3e ab 18 cf be fa 70 ac be
       0.37514412 0.3099117 -0.40448508 -0.33679944
000010 68 56 80 be b5 e1 b6 be
       -0.25065923 -0.35719076
